{"format": "torch", "nodes": [{"name": "inc", "id": 139874788235008, "class_name": "DoubleConv(\n  (double_conv): Sequential(\n    (0): Conv2d(3, 64, kernel_size=(3, 3), stride=(1, 1), padding=(1, 1))\n    (1): BatchNorm2d(64, eps=1e-05, momentum=0.1, affine=True, track_running_stats=True)\n    (2): ReLU(inplace=True)\n    (3): Conv2d(64, 64, kernel_size=(3, 3), stride=(1, 1), padding=(1, 1))\n    (4): BatchNorm2d(64, eps=1e-05, momentum=0.1, affine=True, track_running_stats=True)\n    (5): ReLU(inplace=True)\n  )\n)", "parameters": [["double_conv.0.weight", [64, 3, 3, 3]], ["double_conv.0.bias", [64]], ["double_conv.1.weight", [64]], ["double_conv.1.bias", [64]], ["double_conv.3.weight", [64, 64, 3, 3]], ["double_conv.3.bias", [64]], ["double_conv.4.weight", [64]], ["double_conv.4.bias", [64]]], "output_shape": [[1, 64, 378, 448]], "num_parameters": [1728, 64, 64, 64, 36864, 64, 64, 64]}, {"name": "down1", "id": 139874753395632, "class_name": "Down(\n  (maxpool_conv): Sequential(\n    (0): MaxPool2d(kernel_size=2, stride=2, padding=0, dilation=1, ceil_mode=False)\n    (1): DoubleConv(\n      (double_conv): Sequential(\n        (0): Conv2d(64, 128, kernel_size=(3, 3), stride=(1, 1), padding=(1, 1))\n        (1): BatchNorm2d(128, eps=1e-05, momentum=0.1, affine=True, track_running_stats=True)\n        (2): ReLU(inplace=True)\n        (3): Conv2d(128, 128, kernel_size=(3, 3), stride=(1, 1), padding=(1, 1))\n        (4): BatchNorm2d(128, eps=1e-05, momentum=0.1, affine=True, track_running_stats=True)\n        (5): ReLU(inplace=True)\n      )\n    )\n  )\n)", "parameters": [["maxpool_conv.1.double_conv.0.weight", [128, 64, 3, 3]], ["maxpool_conv.1.double_conv.0.bias", [128]], ["maxpool_conv.1.double_conv.1.weight", [128]], ["maxpool_conv.1.double_conv.1.bias", [128]], ["maxpool_conv.1.double_conv.3.weight", [128, 128, 3, 3]], ["maxpool_conv.1.double_conv.3.bias", [128]], ["maxpool_conv.1.double_conv.4.weight", [128]], ["maxpool_conv.1.double_conv.4.bias", [128]]], "output_shape": [[1, 128, 189, 224]], "num_parameters": [73728, 128, 128, 128, 147456, 128, 128, 128]}, {"name": "down2", "id": 139874779304624, "class_name": "Down(\n  (maxpool_conv): Sequential(\n    (0): MaxPool2d(kernel_size=2, stride=2, padding=0, dilation=1, ceil_mode=False)\n    (1): DoubleConv(\n      (double_conv): Sequential(\n        (0): Conv2d(128, 256, kernel_size=(3, 3), stride=(1, 1), padding=(1, 1))\n        (1): BatchNorm2d(256, eps=1e-05, momentum=0.1, affine=True, track_running_stats=True)\n        (2): ReLU(inplace=True)\n        (3): Conv2d(256, 256, kernel_size=(3, 3), stride=(1, 1), padding=(1, 1))\n        (4): BatchNorm2d(256, eps=1e-05, momentum=0.1, affine=True, track_running_stats=True)\n        (5): ReLU(inplace=True)\n      )\n    )\n  )\n)", "parameters": [["maxpool_conv.1.double_conv.0.weight", [256, 128, 3, 3]], ["maxpool_conv.1.double_conv.0.bias", [256]], ["maxpool_conv.1.double_conv.1.weight", [256]], ["maxpool_conv.1.double_conv.1.bias", [256]], ["maxpool_conv.1.double_conv.3.weight", [256, 256, 3, 3]], ["maxpool_conv.1.double_conv.3.bias", [256]], ["maxpool_conv.1.double_conv.4.weight", [256]], ["maxpool_conv.1.double_conv.4.bias", [256]]], "output_shape": [[1, 256, 94, 112]], "num_parameters": [294912, 256, 256, 256, 589824, 256, 256, 256]}, {"name": "down3", "id": 139874779305152, "class_name": "Down(\n  (maxpool_conv): Sequential(\n    (0): MaxPool2d(kernel_size=2, stride=2, padding=0, dilation=1, ceil_mode=False)\n    (1): DoubleConv(\n      (double_conv): Sequential(\n        (0): Conv2d(256, 512, kernel_size=(3, 3), stride=(1, 1), padding=(1, 1))\n        (1): BatchNorm2d(512, eps=1e-05, momentum=0.1, affine=True, track_running_stats=True)\n        (2): ReLU(inplace=True)\n        (3): Conv2d(512, 512, kernel_size=(3, 3), stride=(1, 1), padding=(1, 1))\n        (4): BatchNorm2d(512, eps=1e-05, momentum=0.1, affine=True, track_running_stats=True)\n        (5): ReLU(inplace=True)\n      )\n    )\n  )\n)", "parameters": [["maxpool_conv.1.double_conv.0.weight", [512, 256, 3, 3]], ["maxpool_conv.1.double_conv.0.bias", [512]], ["maxpool_conv.1.double_conv.1.weight", [512]], ["maxpool_conv.1.double_conv.1.bias", [512]], ["maxpool_conv.1.double_conv.3.weight", [512, 512, 3, 3]], ["maxpool_conv.1.double_conv.3.bias", [512]], ["maxpool_conv.1.double_conv.4.weight", [512]], ["maxpool_conv.1.double_conv.4.bias", [512]]], "output_shape": [[1, 512, 47, 56]], "num_parameters": [1179648, 512, 512, 512, 2359296, 512, 512, 512]}, {"name": "down4", "id": 139874753395248, "class_name": "Down(\n  (maxpool_conv): Sequential(\n    (0): MaxPool2d(kernel_size=2, stride=2, padding=0, dilation=1, ceil_mode=False)\n    (1): DoubleConv(\n      (double_conv): Sequential(\n        (0): Conv2d(512, 512, kernel_size=(3, 3), stride=(1, 1), padding=(1, 1))\n        (1): BatchNorm2d(512, eps=1e-05, momentum=0.1, affine=True, track_running_stats=True)\n        (2): ReLU(inplace=True)\n        (3): Conv2d(512, 512, kernel_size=(3, 3), stride=(1, 1), padding=(1, 1))\n        (4): BatchNorm2d(512, eps=1e-05, momentum=0.1, affine=True, track_running_stats=True)\n        (5): ReLU(inplace=True)\n      )\n    )\n  )\n)", "parameters": [["maxpool_conv.1.double_conv.0.weight", [512, 512, 3, 3]], ["maxpool_conv.1.double_conv.0.bias", [512]], ["maxpool_conv.1.double_conv.1.weight", [512]], ["maxpool_conv.1.double_conv.1.bias", [512]], ["maxpool_conv.1.double_conv.3.weight", [512, 512, 3, 3]], ["maxpool_conv.1.double_conv.3.bias", [512]], ["maxpool_conv.1.double_conv.4.weight", [512]], ["maxpool_conv.1.double_conv.4.bias", [512]]], "output_shape": [[1, 512, 23, 28]], "num_parameters": [2359296, 512, 512, 512, 2359296, 512, 512, 512]}, {"name": "up1", "id": 139874753394432, "class_name": "Up(\n  (up): Upsample(scale_factor=2.0, mode=bilinear)\n  (conv): DoubleConv(\n    (double_conv): Sequential(\n      (0): Conv2d(1024, 512, kernel_size=(3, 3), stride=(1, 1), padding=(1, 1))\n      (1): BatchNorm2d(512, eps=1e-05, momentum=0.1, affine=True, track_running_stats=True)\n      (2): ReLU(inplace=True)\n      (3): Conv2d(512, 256, kernel_size=(3, 3), stride=(1, 1), padding=(1, 1))\n      (4): BatchNorm2d(256, eps=1e-05, momentum=0.1, affine=True, track_running_stats=True)\n      (5): ReLU(inplace=True)\n    )\n  )\n)", "parameters": [["conv.double_conv.0.weight", [512, 1024, 3, 3]], ["conv.double_conv.0.bias", [512]], ["conv.double_conv.1.weight", [512]], ["conv.double_conv.1.bias", [512]], ["conv.double_conv.3.weight", [256, 512, 3, 3]], ["conv.double_conv.3.bias", [256]], ["conv.double_conv.4.weight", [256]], ["conv.double_conv.4.bias", [256]]], "output_shape": [[1, 256, 47, 56]], "num_parameters": [4718592, 512, 512, 512, 1179648, 256, 256, 256]}, {"name": "up2", "id": 139874753393760, "class_name": "Up(\n  (up): Upsample(scale_factor=2.0, mode=bilinear)\n  (conv): DoubleConv(\n    (double_conv): Sequential(\n      (0): Conv2d(512, 256, kernel_size=(3, 3), stride=(1, 1), padding=(1, 1))\n      (1): BatchNorm2d(256, eps=1e-05, momentum=0.1, affine=True, track_running_stats=True)\n      (2): ReLU(inplace=True)\n      (3): Conv2d(256, 128, kernel_size=(3, 3), stride=(1, 1), padding=(1, 1))\n      (4): BatchNorm2d(128, eps=1e-05, momentum=0.1, affine=True, track_running_stats=True)\n      (5): ReLU(inplace=True)\n    )\n  )\n)", "parameters": [["conv.double_conv.0.weight", [256, 512, 3, 3]], ["conv.double_conv.0.bias", [256]], ["conv.double_conv.1.weight", [256]], ["conv.double_conv.1.bias", [256]], ["conv.double_conv.3.weight", [128, 256, 3, 3]], ["conv.double_conv.3.bias", [128]], ["conv.double_conv.4.weight", [128]], ["conv.double_conv.4.bias", [128]]], "output_shape": [[1, 128, 94, 112]], "num_parameters": [1179648, 256, 256, 256, 294912, 128, 128, 128]}, {"name": "up3", "id": 139874779306544, "class_name": "Up(\n  (up): Upsample(scale_factor=2.0, mode=bilinear)\n  (conv): DoubleConv(\n    (double_conv): Sequential(\n      (0): Conv2d(256, 128, kernel_size=(3, 3), stride=(1, 1), padding=(1, 1))\n      (1): BatchNorm2d(128, eps=1e-05, momentum=0.1, affine=True, track_running_stats=True)\n      (2): ReLU(inplace=True)\n      (3): Conv2d(128, 64, kernel_size=(3, 3), stride=(1, 1), padding=(1, 1))\n      (4): BatchNorm2d(64, eps=1e-05, momentum=0.1, affine=True, track_running_stats=True)\n      (5): ReLU(inplace=True)\n    )\n  )\n)", "parameters": [["conv.double_conv.0.weight", [128, 256, 3, 3]], ["conv.double_conv.0.bias", [128]], ["conv.double_conv.1.weight", [128]], ["conv.double_conv.1.bias", [128]], ["conv.double_conv.3.weight", [64, 128, 3, 3]], ["conv.double_conv.3.bias", [64]], ["conv.double_conv.4.weight", [64]], ["conv.double_conv.4.bias", [64]]], "output_shape": [[1, 64, 189, 224]], "num_parameters": [294912, 128, 128, 128, 73728, 64, 64, 64]}, {"name": "up4", "id": 139874753396160, "class_name": "Up(\n  (up): Upsample(scale_factor=2.0, mode=bilinear)\n  (conv): DoubleConv(\n    (double_conv): Sequential(\n      (0): Conv2d(128, 64, kernel_size=(3, 3), stride=(1, 1), padding=(1, 1))\n      (1): BatchNorm2d(64, eps=1e-05, momentum=0.1, affine=True, track_running_stats=True)\n      (2): ReLU(inplace=True)\n      (3): Conv2d(64, 64, kernel_size=(3, 3), stride=(1, 1), padding=(1, 1))\n      (4): BatchNorm2d(64, eps=1e-05, momentum=0.1, affine=True, track_running_stats=True)\n      (5): ReLU(inplace=True)\n    )\n  )\n)", "parameters": [["conv.double_conv.0.weight", [64, 128, 3, 3]], ["conv.double_conv.0.bias", [64]], ["conv.double_conv.1.weight", [64]], ["conv.double_conv.1.bias", [64]], ["conv.double_conv.3.weight", [64, 64, 3, 3]], ["conv.double_conv.3.bias", [64]], ["conv.double_conv.4.weight", [64]], ["conv.double_conv.4.bias", [64]]], "output_shape": [[1, 64, 378, 448]], "num_parameters": [73728, 64, 64, 64, 36864, 64, 64, 64]}, {"name": "outc", "id": 139874753396640, "class_name": "OutConv(\n  (conv): Conv2d(64, 3, kernel_size=(1, 1), stride=(1, 1))\n)", "parameters": [["conv.weight", [3, 64, 1, 1]], ["conv.bias", [3]]], "output_shape": [[1, 3, 378, 448]], "num_parameters": [192, 3]}], "edges": []}